enas/save_model/child.pt (torch_old, 876233 bytes, 2019 tensors)

conv1.weight f4 [20, 3, 3, 3]
000000 8d 4c 32 bd 41 13 0e 3e 80 65 39 3e 49 db cf 3d
       -0.043530036 0.13874532 0.18105125 0.10149247
000010 64 49 b5 bc a3 5c a4 bb 9f f9 b8 bc 9b db c7 bd
       -0.022129722 -0.005015926 -0.022579966 -0.09758683
000020 32 27 32 3d 22 3d 34 bc 72 da fd bd 17 51 3e 3e
       0.04349441 -0.011000903 -0.12395181 0.18585621
000030 90 d0 e2 3c a6 d0 c8 3d 1e 31 3f be 13 13 43 bd
       0.027687341 0.098054215 -0.1867108 -0.047625612
000040 a6 35 64 bd ab ce 20 be a9 c7 13 be 40 7c 04 be
       -0.055715226 -0.15703838 -0.14431633 -0.12938023
000050 1f e3 40 3e 43 a9 e1 bc 83 90 aa 3d 72 43 1a 3e
       0.1883664 -0.02754653 0.08328345 0.15064791
000060 cc c0 b0 bd 6a 98 40 bc c7 47 2d be ae 70 4b 3d
       -0.08630523 -0.011755088 -0.16921912 0.049668007
000070 d9 a4 fc bd 50 9d 30 3e 4d ee c4 3d 21 7f 94 bc
       -0.1233613 0.1724751 0.09615765 -0.018127026
000080 4f e0 f0 3d 43 f6 66 bd 2c 1e 02 be 37 40 c6 3c
       0.117615335 -0.056387197 -0.12706822 0.024200542
000090 d9 09 42 bd 19 03 1b 3e b1 2c 26 3d 21 d4 cd bd
       -0.047372673 0.151379 0.040569965 -0.10050226
0000a0 e2 1c f8 bd b2 d3 02 be a1 3f aa 3c f6 1e 42 bd
       -0.12114884 -0.12776068 0.020782294 -0.047392808
0000b0 9a 6a 27 3e 7f ee 53 bd ef 6a d0 bd 86 a0 ef bd
       0.16349259 -0.05174112 -0.10176646 -0.11700539
0000c0 a1 68 e1 bd 21 9c 24 be b6 09 9b 3c df 8b 15 bc
       -0.110062845 -0.16075183 0.018925529 -0.009127586
0000d0 3e 61 1d 3e 11 f6 ce bd 01 d2 a6 3d 07 f6 b6 bd
       0.15369126 -0.10105527 0.08145524 -0.08933645
0000e0 71 d9 8f bd 3f 64 33 be 5d cd e3 bd 71 79 87 bd
       -0.070238955 -0.1751871 -0.11123154 -0.0661496
0000f0 58 f0 ae bd 0a f6 34 3d 34 3b ff 3b fb 61 a4 bd
       -0.08541936 0.044179954 0.00778904 -0.08026501
000100 f9 d1 23 3e d4 54 3a 3d ca fa ef bd 5e 38 c3 bd
       0.15998067 0.045491055 -0.11717756 -0.095322356
000110 98 cc 0f be d2 22 ef 3c 60 be 2b be 1c a0 a2 3d
       -0.1404289 0.029191408 -0.16771841 0.07940695
000120 06 fe 96 3d 38 3e d5 3d fe 99 39 3e e2 45 37 be
       0.0737267 0.10412258 0.1812515 -0.17897752
000130 7f 67 ce bd 52 27 1f 3e 3b cc 09 3d 41 b5 f7 bd
       -0.10078334 0.15542343 0.033642035 -0.12095118
000140 d2 a1 3d 3d 95 45 d3 3d 98 1c 10 be 30 53 1f be
       0.046296902 0.10316006 -0.14073408 -0.15559077
000150 b4 73 9b bd d5 7d 21 3e cb 11 1a be 68 29 ca bd
       -0.07590428 0.15770657 -0.1504585 -0.09871179
000160 1e de ec bd 9b 99 13 bd b6 67 4f 3d 38 b5 00 be
       -0.11565803 -0.03603516 0.050636016 -0.1256913
000170 bc 8c b4 bc 82 42 ef bd b5 00 d1 3c ea a4 ae bb
       -0.022039764 -0.11682607 0.025513032 -0.005329718
000180 1b 5e 1f bd 32 0a 34 be 4b 73 79 3d 2d 8f 1f 3e
       -0.038908105 -0.17582014 0.060900968 0.15581961
000190 d3 04 24 bd 02 a3 db bd 4c ff 6c bd 6a f1 2d be
       -0.040043663 -0.10724451 -0.057860658 -0.16986623
0001a0 28 c5 9b 3d db 07 05 be 1c 99 c2 3d a9 d2 24 3e
       0.07605964 -0.12991278 0.095018595 0.16095985
0001b0 50 e9 3c bd f5 1a 28 be 70 66 d0 3d 56 1f 99 3d
       -0.04612094 -0.16416533 0.101757884 0.0747668
0001c0 a3 aa 3f be 48 c4 26 3e 38 28 0e 3d 6f 32 11 be
       -0.18717436 0.16285813 0.034706324 -0.14179395
0001d0 4e d6 0e be be 8d 0e 3e 03 ca 3f be dc d8 02 bd
       -0.13948938 0.13921258 -0.18729405 -0.031945094
0001e0 0a 44 06 bd 23 01 3a 3d d9 11 f8 bb 39 35 23 3d
       -0.03277973 0.04541124 -0.007570487 0.03984568
0001f0 f3 18 8d bd 95 08 f2 bd df 44 9b 3d 0f af 29 3e
       -0.06889524 -0.11818043 0.075814955 0.16570686
000200 2b cf 05 3e 3b 42 5c bd 4e 42 0d be d5 24 90 bd
       0.1306731 -0.0537741 -0.13794824 -0.07038275
000210 96 79 d9 bd 91 3c 1b 3d c8 18 ed bd 54 04 28 be
       -0.10618894 0.037899558 -0.11576992 -0.16407901
000220 76 a3 14 be b3 4f b3 3d cf a1 a3 3d 25 77 1b be
       -0.1451548 0.08755436 0.07989847 -0.15182169
000230 f0 90 b6 3c 5a 82 ff bd 79 85 a2 3d 8f df 2d 3d
       0.022285908 -0.124760345 0.07935614 0.04244953
000240 a1 b4 09 3e 07 5c 9e bc b6 4c 2f be da 0c 0e be
       0.1344781 -0.019330991 -0.17119107 -0.1387209
000250 a5 96 f2 3c 6f d8 02 be f9 45 a3 3d 9b 0e 25 be
       0.029612849 -0.12777875 0.079723306 -0.16118853
000260 75 9c c5 bc b4 a8 e8 3d 0c b1 0f be 11 0f 44 bd
       -0.024122456 0.113603026 -0.14032382 -0.04786593
000270 eb 2e 38 3e 47 f8 8d 3d 0a 45 03 be 88 5d 15 bd
       0.17986648 0.06932121 -0.12819305 -0.03646615
000280 2e 00 15 3d 2f e1 04 3e da e6 6d bd 41 9b 81 bd
       0.036377124 0.12976526 -0.058081485 -0.063284405
000290 3e e4 0c 3e 70 e5 19 bc b6 63 a7 bd 3d 7d a9 bd
       0.13758942 -0.009393081 -0.08173315 -0.082758404
0002a0 eb fc 31 be 3b 08 d8 3d b9 20 87 3c ac 65 39 be
       -0.17381637 0.10548445 0.016495096 -0.18105191
0002b0 17 47 a8 bd 63 98 1f 3c 53 86 3c be 31 3c 4b 3c
       -0.08216684 0.009740922 -0.18410616 0.0124044875
0002c0 89 a4 12 3e 7f 71 40 3e 36 14 b7 3d 97 70 17 be
       0.14320578 0.18793295 0.08939402 -0.14789043
0002d0 bb c2 d4 b9 b6 1a fc 3d 32 f5 d5 3d c9 a5 0b be
       -0.00040580877 0.12309782 0.10447158 -0.13637461
0002e0 44 12 16 3d e2 e4 e1 bd 9f b3 12 3e 19 2d 23 be
       0.036638513 -0.11029984 0.14326333 -0.15935172
0002f0 4f 07 0f be 6f d0 0c bd 60 35 eb 3d 52 5d 35 3d
       -0.13967632 -0.034378465 0.1148479 0.04427845
000300 a4 5e a2 bd e5 d6 13 bd 83 33 35 be c3 b6 03 3e
       -0.079282075 -0.03609361 -0.17695431 0.12862687
000310 b7 fc 9a bd 2b 57 99 bc 31 60 08 be 07 45 35 be
       -0.07567733 -0.018718323 -0.13317944 -0.17702113
000320 b7 d0 8c bd 30 6a 37 3e 12 b4 32 be 38 fa 66 3d
       -0.06875747 0.17911601 -0.17451504 0.05639097
000330 37 14 3c be 56 51 dd bd 79 9a 27 bc fb e3 dd bc
       -0.18367086 -0.10806529 -0.0102297 -0.027086249
000340 7f 79 6a bd 85 4a 91 ba d2 f5 fe bd 03 52 e2 3d
       -0.057244774 -0.0011084831 -0.1244923 0.11050799
000350 b2 29 ba bd 42 96 11 3e bf c3 e5 bd 0f 51 5c 3d
       -0.09089984 0.14217475 -0.11218976 0.05378824
000360 ec 8c 3b be 9c 5f 36 bb 19 a2 81 3d ba 94 11 3e
       -0.18315476 -0.0027827984 0.06329746 0.14216891
000370 b8 7c 8a 3d 1b 97 60 bc bd 60 92 bd 13 89 26 be
       0.067620695 -0.013707901 -0.071473576 -0.16263227
000380 79 ce ed 3d 59 3e 2e 3e 50 42 49 3b c9 35 d5 3d
       0.11611647 0.17015971 0.0030709691 0.10410649
000390 fb e8 a7 bd 39 3f 1f be 58 6d fb 3b 44 7c 1b 3e
       -0.081987344 -0.15551461 0.007672947 0.15184122
0003a0 b4 80 e0 bd ef ac 62 bd 7d 2b 0b 3e 00 af 6b bd
       -0.10962048 -0.055340704 0.13590808 -0.05753994
0003b0 91 d0 c7 3c 14 5a 02 3e 35 e6 28 3e a7 11 af bd
       0.024391444 0.12729675 0.16494067 -0.08548289
0003c0 b3 c5 15 be fb 33 27 be 1f 5e 4f bd 0d 97 8c 3c
       -0.14626198 -0.16328423 -0.05062687 0.01716187
0003d0 6f b6 fb 3d 82 82 40 bd 10 79 68 3d 37 ca 41 be
       0.12290656 -0.046999462 0.05675608 -0.18924795
0003e0 95 34 ce 3d 63 be 16 be a7 bb 12 be b5 33 27 3c
       0.10068623 -0.14721064 -0.14329396 0.010205199
0003f0 4b c8 2a be 32 81 0f 3d 69 ae b4 bd bf 9a 24 3e
       -0.16677968 0.03503532 -0.088223286 0.16074656

bn1.weight f4 [20]
000000 57 d8 e7 3e ab 06 ef 3e 29 0d f4 3e 4e 9d 59 3d
       0.45282242 0.46684775 0.4766629 0.053128533
000010 b9 35 4a 3f cf 38 26 3f ea 14 4f 3f 0e a1 12 3f
       0.78988224 0.64930433 0.8089129 0.57277
000020 65 9d 3e 3f ee f0 2f 3f 08 b9 cb 3e 5f b6 5d 3f
       0.74458915 0.68727005 0.39789605 0.866064
000030 47 11 28 3f bf 08 75 3f 6f 98 23 3f b8 1b 44 3f
       0.65651363 0.9571647 0.6390447 0.76604795
000040 da 58 15 3f c0 d2 51 3f c5 c3 36 3f 42 07 7d 3f
       0.583387 0.81962204 0.7139247 0.988392

bn1.bias f4 [20]
000000 bc f9 04 3a 50 9d 65 ba c7 33 d4 ba 1b e7 d7 3c
       0.0005072614 -0.0008759098 -0.0016189747 0.026355317
000010 b5 04 df 39 db 45 ae 39 8b 15 10 3a 4f 2b 89 bb
       0.00042537382 0.00033239913 0.0005496374 -0.004186071
000020 73 d2 db 3a 70 3a fc 39 c8 04 cd 39 eb 7a 35 3b
       0.0016771093 0.00048108725 0.0003910421 0.0027691673
000030 8f b9 bb bb 7b 3d 01 bb 1b 36 57 3b a4 e0 99 3a
       -0.0057289074 -0.0019720483 0.0032838646 0.0011739922
000040 65 07 41 3a 80 9e bb 3a b7 55 66 3a 90 c4 b7 3a
       0.00073634676 0.0014314204 0.0008786576 0.0014020372

bn1.running_mean f4 [20]
000000 50 f4 0f 3c 2e 20 f8 3c e4 86 21 3d 66 d1 5e 3d
       0.008786276 0.030288782 0.039435282 0.054398917
000010 43 99 25 3d c9 88 f8 3c a7 a7 01 3d e9 5e 5d 3d
       0.040429365 0.030338662 0.031654026 0.05404559
000020 d8 58 d6 3a 01 ef 85 3c 19 f8 e6 bc da a5 20 bd
       0.0016353382 0.016349318 -0.028194474 -0.03922067
000030 09 4a d2 bc a5 de e9 3c 58 6e da bb 43 18 eb ba
       -0.025670068 0.028548548 -0.006665986 -0.0017936308
000040 fe b8 31 bd 92 f3 28 3d 18 60 03 3c eb 8a 17 3d
       -0.043389313 0.04124791 0.008018516 0.036997717

bn1.running_var f4 [20]
000000 dd ce 5c 3f 46 ee 60 3f 5e ed 75 3f 65 ff 81 3f
       0.8625315 0.87863576 0.9606532 1.0156065
000010 42 8c 70 3f 58 c3 64 3f 62 46 63 3f 8b 40 80 3f
       0.93964016 0.8936057 0.8877927 1.0019697
000020 bf c3 57 3f 90 35 56 3f c6 5e 6c 3f 70 f8 6c 3f
       0.8428306 0.8367548 0.9233211 0.92566586
000030 95 f3 63 3f 70 31 62 3f 59 6e 52 3f 44 b3 60 3f
       0.8904355 0.88356686 0.8219963 0.8777354
000040 71 e7 72 3f bb ba 6a 3f 7c 4b 57 3f be 10 68 3f
       0.948844 0.9169118 0.84099555 0.90650547

fc_out.weight f4 [10, 80]
000000 f2 2d e1 3d f9 27 91 3d cb 7c 12 bd 78 db db bd
       0.109950915 0.07087702 -0.035763543 -0.1073522
000010 be 82 8d bd de bc 24 bd ca 44 2b 3d 93 58 97 3d
       -0.06909703 -0.04021918 0.04181365 0.07389941
000020 7c 6c 97 3d 6f 67 dd 3d d6 e4 13 bb 3e 7a 55 3d
       0.073937386 0.10810744 -0.0022566817 0.052118532
000030 8f a9 4c bd 13 57 3e bd 71 37 30 bd 33 87 3d bb
       -0.04996639 -0.04646976 -0.043021623 -0.0028919696
000040 e7 15 3f bd a3 e1 c3 bc 70 75 b0 bd 62 1d be bd
       -0.046651747 -0.023911303 -0.086161494 -0.09282948
000050 96 77 cc bc ae f7 d2 3d 37 a4 89 3d 3c c2 c0 3d
       -0.024959367 0.103011474 0.067207746 0.09412047
000060 7b ae 4b 3d 4d df bd bc 82 36 22 3d 8e ac 4f 3d
       0.049726944 -0.023177767 0.039602764 0.05070167
000070 f1 91 42 bc f8 ea ca 3d 16 0f df 3d a9 a9 62 3b
       -0.011875615 0.09908098 0.10891549 0.0034585989
000080 b4 5e f7 bc d9 a9 de 3d ec 70 e8 bc d7 fc 3d 3d
       -0.030196525 0.108722396 -0.028374158 0.046383705
000090 17 fb 4d bd f9 76 61 3d 83 8e 0e 3d b5 0e e5 bd
       -0.050288286 0.0550451 0.03480388 -0.11184446
0000a0 36 be bf 3d a8 bb 9b bc 89 63 72 3d 27 87 f9 3b
       0.09362452 -0.01901038 0.059176955 0.0076149884
0000b0 e2 cc aa bd 96 43 3b 3d 5c e1 5d 3d 7a 49 d6 bd
       -0.083398595 0.04571875 0.054169998 -0.10463233
0000c0 8c c2 d0 bd 7f 84 c1 bb 3d 19 30 bd 4f 7f 53 bd
       -0.10193357 -0.0059056873 -0.04299282 -0.051635083
0000d0 fd bb b5 bd 0f 61 cd bd cb 42 9f bd 88 da e0 3d
       -0.088737465 -0.10028278 -0.077764116 0.109791815
0000e0 4e 58 0b bc 7e b5 4e 3d 70 16 8f bd fe c9 41 3c
       -0.00850494 0.050466053 -0.069867015 0.011827944
0000f0 69 c5 c7 bd 98 0e b4 3b 30 95 44 bd 14 da b5 3c
       -0.0975445 0.005494904 -0.04799384 0.022198714
000100 a9 8f 2c 3d 93 2a 53 bc 2f a0 54 3d c2 a3 bf bd
       0.042129193 -0.012888568 0.051910575 -0.09357406
000110 13 de 0c bb 31 48 d9 3c b0 24 81 3c 12 9a a2 3d
       -0.0021494671 0.026523681 0.015764564 0.07939543
000120 3e 88 d9 bd 58 e9 b7 3b fe 6c b0 bd 75 b3 df 3d
       -0.10621689 0.0056125335 -0.086145386 0.109229006
000130 4a c0 dc bd 86 09 c5 3d de 5e a7 bd 2c 9e a0 3d
       -0.10778864 0.09620957 -0.08172391 0.07842669
000140 85 07 62 3c 93 71 e1 bd 63 98 70 3b 8a ea e2 3c
       0.013795738 -0.11007991 0.0036711923 0.027699728
000150 9c 5f 40 3d 25 d1 a6 bd 5e ee 93 bd e0 5a 17 bd
       0.04696618 -0.0814536 -0.07223199 -0.0369519
000160 1c e0 f6 3c 92 c5 a4 bd 56 d4 83 bd 8e 8d 72 bd
       0.03013616 -0.08045496 -0.06436984 -0.05921703
000170 1c fa aa 3d 89 ed a8 3d 45 f0 ba bd 4c 06 af bd
       0.08348486 0.08248431 -0.09127859 -0.08546123
000180 05 2d 48 bc 96 7e 0e 3d 9a a4 0f bc 47 4a a3 3d
       -0.012217765 0.03478869 -0.008767271 0.07973152
000190 9d 91 cd 3d c6 5e fd bc 0c fa 8b 3d 43 f5 45 ba
       0.10037539 -0.03092898 0.06834802 -0.00075515005
0001a0 bc ae ad bc e2 0a 98 3d 9f fc f4 bc 12 95 bc 3d
       -0.021201484 0.07423951 -0.029905615 0.092081204
0001b0 8f fc b0 bd 38 90 bd 39 27 3b 6d bd 01 32 7a 3d
       -0.08641922 0.0003615634 -0.05791774 0.061082844
0001c0 fa 45 e2 3d c9 5e da bc d2 9e e1 3c 19 59 b8 bd
       0.11048503 -0.026656525 0.027541552 -0.09001369
0001d0 4c ff 83 3d fd 26 c2 bd 22 5c c6 bc d8 44 69 bb
       0.064451784 -0.09480093 -0.024213854 -0.0035594013
0001e0 e3 fa 7e bd 81 73 89 bd ca 6a 69 bd 78 e2 54 bd
       -0.062250983 -0.06711484 -0.056986608 -0.05197379
0001f0 89 52 58 3d f8 28 1c 3d cf b6 de 3c 98 49 ad bd
       0.052813087 0.03812501 0.02718678 -0.084613025
000200 d5 fa df bd 4d f1 ee 3c b0 2b 97 3a 8a ac 83 3c
       -0.10936514 0.029167796 0.0011533406 0.016073484
000210 9d 3a ba bd 38 bc de 3d 8b b4 2d bc e2 14 4a bd
       -0.09093211 0.10875744 -0.010602127 -0.04933632
000220 93 be a6 bb 9b d8 06 3c 81 9c 9a bd 4e 8c ec bb
       -0.005088636 0.008230354 -0.07549382 -0.007218874
000230 f9 59 eb 3c fa 8f 1e bd dd 95 f9 3b 3b 90 84 3d
       0.028729426 -0.038711525 0.007616742 0.06472822
000240 c8 f5 bd bc 26 a2 81 3d cc ce cd bd ab 93 67 3d
       -0.023188487 0.063297555 -0.10049209 0.05653731
000250 3a aa 44 3b d5 75 11 bd 7a 1e 96 3d f4 87 c6 bc
       0.003000869 -0.035512764 0.07330032 -0.02423475
000260 6a 6b d6 bd b4 4b a0 bd de a6 ae 3d 36 b3 74 bd
       -0.10469706 -0.07826939 0.08527921 -0.05974122
000270 d4 29 26 bd 9d 1c 56 bc a4 51 d9 3d 31 a4 8e bb
       -0.040567234 -0.013068345 0.10611275 -0.0043530692
000280 79 b3 09 3d 55 85 73 3d 7f 2c e6 bc e9 0d bc 3d
       0.033618424 0.059453327 -0.02809739 0.09182341
000290 af 6b a9 bd ad 3e 6c 3c 04 56 c9 3d c3 ee db bd
       -0.08272492 0.01441924 0.09830859 -0.107388996
0002a0 66 e9 a4 bd 00 cd ee 3b 96 e2 9d 3c 70 18 87 3d
       -0.0805233 0.0072876215 0.019273084 0.06596458
0002b0 e6 9e b5 bd 78 73 d2 3d 22 d3 d5 bc 54 70 4b 3d
       -0.08868198 0.1027593 -0.026101653 0.04966767
0002c0 2a d2 cf bd a0 cc 8e 3b 24 28 2e b9 5c a5 0d 3d
       -0.101475075 0.0043578893 -0.00016608887 0.034581527
0002d0 e7 8a 38 bd 58 41 23 3a 0f 49 ae 3c fd 35 e2 bd
       -0.045054343 0.00062276935 0.021275071 -0.11045454
0002e0 31 41 eb b9 a5 1f bf bd fc b6 3b bd e3 82 30 3d
       -0.00044871264 -0.093322076 -0.045828804 0.043093573
0002f0 93 6c dd 3b ac 54 81 bd ed cf d3 bd c8 0d 9e 3d
       0.006757328 -0.06314978 -0.10342393 0.07717472
000300 32 0c 1a bd 09 25 b3 bc 77 65 91 3d 62 70 a0 3d
       -0.037609287 -0.021868246 0.07099431 0.07833935
000310 d2 04 7e bd a8 d2 ba 3d 82 fc e4 3b f8 38 b0 bd
       -0.062016316 0.09122211 0.006988109 -0.08604616
000320 a7 ec 56 3d 6e 80 64 bd 40 01 48 3b 91 56 41 3d
       0.052471783 -0.055786543 0.0030518323 0.047201697
000330 49 2c 4c bd 95 82 b3 bd b7 c7 db 3b 42 89 68 3c
       -0.04984692 -0.08765141 0.0067071575 0.014192881
000340 4b 8c d4 3d cd 06 4a 3c 30 2e 9e bd b1 2e a5 3d
       0.10378321 0.012330723 -0.07723653 0.08065546
000350 d9 17 c9 3d 31 97 6b 3d 88 aa 49 3c 07 55 b3 3c
       0.09819002 0.057517234 0.012308724 0.02189113
000360 3f 13 d9 bb aa 2c cf bd 77 57 c5 3d e0 99 98 bd
       -0.0066246088 -0.10115941 0.09635823 -0.07451224
000370 27 d1 ae 3a 4c 60 8b bd 15 e2 6f 3d a4 fc c5 bd
       0.0013337479 -0.068054765 0.058565218 -0.09667328
000380 a7 3a 18 3c 52 21 3c 3d c8 f6 6f bd 92 b0 af 3c
       0.009291328 0.045930214 -0.05858496 0.0214465
000390 35 98 69 3d 87 b2 22 bd 08 4d a0 3d 4f 15 e9 3d
       0.05702992 -0.03972104 0.078271925 0.113810174
0003a0 18 5e bb bd db 50 2e 3d b5 7f 7c bd fa c2 70 bd
       -0.09148806 0.04255758 -0.06164523 -0.058779694
0003b0 a5 33 4c bd 6e 2e c5 3c 82 28 6b bd 71 50 a2 3d
       -0.04985394 0.024069991 -0.057411678 0.07925499
0003c0 d5 1b 98 bd e8 7d 72 bc 62 85 d3 3d 17 dc 23 bc
       -0.074271835 -0.014800526 0.10328175 -0.010001204
0003d0 4f 42 70 3d 2e 93 b3 3d 6d 24 8f bd 9a 5b 4c bd
       0.058656987 0.08768307 -0.069893695 -0.049892046
0003e0 e0 46 9e bd 02 c1 cf bd d8 fc 66 3d ef c2 fa 3b
       -0.07728362 -0.10144235 0.056393474 0.0076526324
0003f0 35 67 d8 3d 04 8b bf 3d 2d 83 a4 bd cd 51 76 bc
       0.1056656 0.09352687 -0.08032832 -0.015034151

fc_out.bias f4 [10]
000000 86 3d 47 bd 14 6a 36 3d 3c 99 85 bd da fd 95 bd
       -0.048642658 0.044534758 -0.06523368 -0.07323809
000010 d0 d8 94 3d a2 63 bc bd 02 b8 35 3d 26 54 7c 3b
       0.07267916 -0.09198691 0.044364937 0.0038502305
000020 7b 15 be bd f1 d9 a0 bc
       -0.09281441 -0.019635173

cell_list.0.node_list.0.conv3x3.1.weight f4 [20]
000000 38 13 c2 3d 3a 90 47 3e c1 58 66 3f c1 dc 76 3f
       0.09476322 0.19488612 0.8997918 0.96430594
000010 1c 8e 23 3e f7 18 ea 3e 6b 15 94 3e ce 7b 62 3f
       0.15972179 0.45722172 0.2892259 0.8847016
000020 6e ee 72 3f 48 48 23 3e 29 4b 3b 3e 13 00 02 3f
       0.94895065 0.15945542 0.1829039 0.50781363
000030 f0 ad 35 3f 65 49 ea 3d ee eb 50 3f fd 9e 16 3f
       0.7096853 0.1143978 0.8161 0.58836347
000040 11 4e 06 3f fe cd b9 3e 29 87 92 3e cd 89 d4 3e
       0.5246287 0.36289972 0.28618744 0.41511384

cell_list.0.node_list.0.conv3x3.1.bias f4 [20]
000000 8d 87 38 ba 5a 1e 41 b9 64 e5 0c ba b8 0d 38 36
       -0.00070392416 -0.00018417221 -0.0005374758 2.7426122e-06
000010 95 6f 29 39 48 73 e4 b8 1b 51 8b 3a 22 59 50 b8
       0.00016158663 -0.0001089336 0.001062903 -4.9674076e-05
000020 76 84 43 3a 98 3e 48 b9 ad b9 69 3b a5 80 36 38
       0.0007458398 -0.00019096804 0.003566365 4.351199e-05
000030 63 16 2f b9 a3 62 24 ba 37 02 f2 b8 e2 7f 2a bb
       -0.0001669764 -0.00062708015 -0.00011539872 -0.0026016166
000040 5b 5b a6 b9 f3 e7 8d ba 9c b7 34 b8 ea 54 3b b9
       -0.00031730052 -0.0010826573 -4.3086344e-05 -0.00017865343

cell_list.0.node_list.0.conv3x3.1.running_mean f4 [20]
000000 0a fc 90 3d e5 f0 b6 3d 2e 8c cd 3d a3 2b 03 3e
       0.07079323 0.08932666 0.10036503 0.12809615
000010 86 b7 bd 3d c7 0f e0 3d 57 a4 b0 3d 5f ef 6d 3d
       0.0926352 0.10940509 0.08625095 0.05808961
000020 0c 22 00 3e d3 eb 09 3e dc 56 e9 3d b8 6f 20 3e
       0.12512988 0.13468866 0.1139352 0.15667617
000030 9c 2d 25 3e 79 36 d1 3d 7c b3 0b 3e 25 16 d8 3d
       0.1613068 0.10215468 0.13642687 0.10551099
000040 3c d7 0d 3e 4d b8 b5 3d cd 7c 09 3e 94 2d a4 3d
       0.13851637 0.08873043 0.13426514 0.08016506

cell_list.0.node_list.0.conv3x3.1.running_var f4 [20]
000000 3e e9 06 3d 3e b8 08 3d 34 1d 5d 3d 58 e9 c7 3d
       0.03293728 0.033378832 0.05398293 0.09761304
000010 4d 2d 55 3d bb 14 55 3d a0 5a 41 3d f9 46 01 3d
       0.052045155 0.052021723 0.047205567 0.031561825
000020 97 3e 98 3d d8 29 f5 3d 9b 8a b4 3d 47 7e d8 3d
       0.07433813 0.11970872 0.088154994 0.105709605
000030 f5 a8 15 3e ee 82 91 3d 13 d2 d8 3d 94 82 7d 3d
       0.14615233 0.07105051 0.105869435 0.061892107
000040 12 b6 9d 3d 3e 67 3a 3d d4 5a a6 3d 40 93 74 3d
       0.07700743 0.045508616 0.08122793 0.05971074

cell_list.0.node_list.0.conv3x3.2.0.weight f4 [20, 1, 3, 3]
000000 4a f6 dc bc 57 ca c1 3c 71 82 e1 3c cc 21 2b 3d
       -0.026972909 0.023656053 0.02752802 0.041780278
000010 ba 6e 42 3d 90 44 8b bd 64 f2 8f 3d 1b 98 89 3d
       0.04746888 -0.06800187 0.07028654 0.06718465
000020 e5 ad d8 bb cc 97 16 3d 69 fa 07 bd bf 5f bd bb
       -0.0066125267 0.03676586 -0.033197794 -0.005779236
000030 e5 7d 0c 3c 83 bc f8 b9 b4 25 8e 3d 78 a7 58 bb
       0.0085749375 -0.00047442698 0.06940785 -0.0033058804
000040 fd b3 7d 3a bc ec 32 bd 65 f2 79 3d 4c 46 34 3d
       0.00096780044 -0.0436828 0.06102218 0.044012353
000050 0a 29 12 3d af 79 98 3c fa db a1 3c ed df 48 bd
       0.03568367 0.01861271 0.019758213 -0.049041677
000060 81 01 9e bc b9 b3 97 bd e6 eb 2a bd 79 0c 26 3d
       -0.019287826 -0.07407326 -0.041728877 0.04053924
000070 a0 38 a9 3c 2f 25 56 bb 1d a8 13 3d 66 5b 84 bd
       0.020656884 -0.0032675972 0.036048997 -0.06462745
000080 c1 2e 28 bd 6d 87 f4 3c a3 c3 06 bd f2 7e 36 bb
       -0.041060213 0.029849732 -0.032901417 -0.0027846661
000090 c0 10 14 bd 24 e3 3a bd 7f 1c 24 bb 86 75 76 3d
       -0.036148787 -0.045626774 -0.00250414 0.060170673
0000a0 96 bf 48 bd 8b f2 8e 3c b4 7d 81 bd eb 27 88 3d
       -0.049010836 0.017449638 -0.06322804 0.06648239
0000b0 fd 2c 2b 3d 76 4f 44 3d 0a c8 49 bd 0f d3 89 3c
       0.04179095 0.047927342 -0.049263038 0.016824273
0000c0 f3 d7 97 3d 84 83 9e 3d bb 13 bb bc f9 30 4b 3b
       0.07414236 0.07739928 -0.022836557 0.0031004532
0000d0 14 32 8f bd f2 b3 40 3c 87 9c 4f 3d a8 fd 26 bd
       -0.069919735 0.011761652 0.050686385 -0.04076925
0000e0 b6 0c 7d bd fe 1a 14 bd b4 3e 82 bd db 1f c9 bc
       -0.0617797 -0.036158554 -0.06359616 -0.024551323
0000f0 81 c4 f9 3c 81 02 8b 3d a2 c8 ba 3c 8d b4 91 bd
       0.030489208 0.06787587 0.022800747 -0.071145155
000100 f1 68 22 bd 61 f5 92 bd a0 e6 85 3d 04 05 94 bd
       -0.03965086 -0.071757086 0.06538129 -0.07227519
000110 e1 f6 c1 3c 5c ad ab bd 76 f6 b6 bd 22 b5 a6 bc
       0.023677291 -0.08382675 -0.089337274 -0.020350043
000120 91 90 66 3d dc c4 59 3d 5e 1c 83 3c 9c 8a 85 3c
       0.056290213 0.053166255 0.016004737 0.016301446
000130 b1 1b 1c bd 2a fe 9d 3c 8e 7b 8b 3a a2 ad 4f 3d
       -0.038112346 0.019286234 0.001064168 0.0507027
000140 f0 66 94 3d e3 8b 77 bd 52 fc 10 bd 52 b4 a8 bc
       0.07246196 -0.06043614 -0.03539688 -0.020593796
000150 d0 24 30 bd 78 d1 57 bd 8e bd 31 3d 25 5c 94 bd
       -0.043003857 -0.05269 0.043393664 -0.07244138
000160 a1 fb 0f 3c c5 72 dc ba 1c 06 45 bc a2 34 92 bb
       0.00878802 -0.0016818872 -0.012025382 -0.0044618407
000170 f6 12 15 3c f5 2c c7 3c 49 c4 1f 3d 94 1d 67 3d
       0.009098759 0.02431343 0.03900555 0.056424692
000180 22 b0 40 3d 5f bd 83 3d 3f 38 4f 3d 32 8e 60 3c
       0.047042973 0.06432604 0.05059075 0.013705777
000190 02 3a d8 3c 14 bd 91 3d 64 d3 1c bd 2a 97 0d 3c
       0.026394848 0.07116142 -0.038287535 0.008641997
0001a0 6e d9 59 bd b5 59 10 bd 9d 1c 30 bd 6f 7b 9a 3c
       -0.053185873 -0.0352418 -0.042996038 0.018857686
0001b0 01 64 79 3d 26 8c 9e bc 89 0e 89 bd f2 5a 7d bd
       0.060886387 -0.019353937 -0.066922255 -0.06185431
0001c0 34 3c 42 3d 45 1b 2c bd a3 8c 14 3c 64 d0 30 3d
       0.047420695 -0.042018194 0.0090667335 0.043167487
0001d0 56 ba 74 3d ba e1 2d 3d df b8 2c 3c 14 ff 99 bb
       0.059748016 0.042451598 0.010542124 -0.004699597
0001e0 d7 24 3b bc 4d 83 09 bd 73 de 20 bc 0d 32 49 bd
       -0.0114223575 -0.033572484 -0.009818661 -0.049119998
0001f0 f9 f1 a9 3c de 2f 1a bd 69 43 a7 bd 41 33 d0 3c
       0.020745264 -0.037643306 -0.08167154 0.025415065
000200 98 b2 30 bc 4a 1f 8f 3d 24 eb c5 3c bb ef 81 bd
       -0.010784768 0.0698839 0.024159975 -0.06344553
000210 97 9f 24 3d b4 ef 11 bd ee b5 00 bd 34 d1 8d 3d
       0.04019126 -0.03562899 -0.0314235 0.06924668
000220 0b fb 2c 3c 23 4d 4c bd 74 3d 80 3d a7 70 90 3d
       0.0105579 -0.04987825 0.06261721 0.07052737
000230 cd 7d 26 3d 56 e3 e1 3c c0 96 97 bc 21 72 56 bc
       0.040647317 0.027574223 -0.0185045 -0.013088734
000240 92 2d dd 3a 4e d4 ba 3c db 75 3f bd c5 fa 74 3d
       0.0016874543 0.022806313 -0.046743255 0.059809465
000250 47 2d 6d 3d a8 f8 cf bb 1b d1 2a bd dc 0e 83 bd
       0.057904508 -0.006346781 -0.041703325 -0.063993186
000260 a2 e1 ef 3c ef 6c 5e 3b 92 f9 84 3d 55 5a 3c bd
       0.029282395 0.0033939441 0.06492914 -0.045984585
000270 f2 44 c3 3c ca cc 49 bd 30 ee 03 bd e7 68 04 bd
       0.023836587 -0.049267568 -0.032209575 -0.032326605
000280 c1 75 33 bb dd bc e7 3c e8 d4 64 bd 9f 0e 6a 3d
       -0.002738342 0.0282883 -0.055867106 0.05714285
000290 f3 c4 61 bd e3 f2 42 3d 70 ad a9 3c 0f 64 ef bc
       -0.055119466 0.047594916 0.020712584 -0.029222516
0002a0 db f1 f6 bc 62 6b 64 bd 46 c6 78 3d 42 fd 00 bd
       -0.030144623 -0.05576647 0.060735963 -0.031491525
0002b0 91 2b 12 3d e9 30 4a bb 81 e2 5a 3d 1b 87 5f 3c
       0.03568608 -0.0030851907 0.053438667 0.0136430515
0002c0 53 ac 30 3c 99 90 de bc a4 bd 03 bd d1 1f 01 bd
       0.010783273 -0.027168559 -0.032163277 -0.031524483

cell_list.0.node_list.0.conv3x3.2.1.weight f4 [20, 20, 1, 1]
000000 b8 a7 0f bd a6 20 1a be 64 00 39 3e 00 37 f2 ba
       -0.03507206 -0.15051517 0.18066555 -0.0018479526
000010 30 f9 92 3c fd 79 b8 bc d4 05 91 bd dd 6d ba 3d
       0.017941087 -0.022519106 -0.0708119 0.09102986
000020 45 37 13 3e 89 34 4e 3e 3f 23 09 3e da d6 51 3e
       0.14376552 0.20137228 0.13392352 0.20492116
000030 44 06 b9 3d 4e a8 c4 3d 72 9a f0 3c b2 e0 ec bd
       0.09034398 0.09602414 0.02937052 -0.11566295
000040 7c 55 aa 3c 14 e2 8d 3d 5c 68 f6 bc 7b 07 40 bc
       0.020792715 0.069278866 -0.03007906 -0.0117205335
000050 e5 1b 02 3e 31 06 1c 3e fd ab 62 be 27 a7 8d 3d
       0.12705953 0.15236737 -0.22135921 0.069166474
000060 3a 7e 35 3e 14 aa 8b bc 4b 79 a9 3d c3 f1 59 be
       0.17723933 -0.017048873 0.08275088 -0.21283631
000070 c6 7e b1 bc 75 0e 32 be 16 ab 17 3e 29 72 d3 3d
       -0.021666896 -0.17388327 0.14811358 0.10324509
000080 46 d1 23 3e ed db 12 bd 9d 73 52 3e 62 3b 22 3e
       0.159978 -0.03585427 0.20551915 0.15842965
000090 22 9e 1f bc e6 b4 9e 3c e8 0f 3f 3e 36 56 61 3e
       -0.009742292 0.019373368 0.18658412 0.22005543
0000a0 10 a7 29 bd 87 1b 92 bc 0c e9 2d 3d db 84 be 3c
       -0.04141909 -0.017835392 0.04245858 0.02325671
0000b0 90 6f 92 3d cf 3a 17 3d 41 1d db 3d 86 47 c5 3d
       0.07150185 0.03692132 0.10698939 0.09632783
0000c0 25 c0 4f be 5d f4 4a 3e 62 17 15 3d c8 69 52 3e
       -0.20288141 0.1981978 0.036399253 0.20548165
0000d0 e1 44 1d bd 22 be 30 3d 5c 1e 38 3e 4a f5 a5 bd
       -0.038395766 0.043150075 0.17980331 -0.08103426
0000e0 5d 28 45 bd 52 73 b4 3b 03 9e c0 bc 3f d8 c6 3c
       -0.048134197 0.0055069113 -0.023512846 0.024273036
0000f0 27 83 a5 3d be fc b7 3d 38 14 c0 bd 2f dc 5e be
       0.08081656 0.089837536 -0.093788564 -0.21763681
000100 31 51 60 3e de 2f d2 3d 1d 3c 57 3d 73 15 11 3e
       0.21905972 0.10263036 0.052547563 0.14168338
000110 e3 45 44 be c6 bd 5b bd 93 0d 15 be fc 96 81 3d
       -0.19167285 -0.05364778 -0.1455596 0.06327626
000120 b3 62 03 3e 4e ad 56 3e 04 0b c2 bd 42 8b 28 bc
       0.1283062 0.20964548 -0.09474757 -0.010287108
000130 31 3b 53 be 8d e8 38 be e8 85 b6 3d e5 3d 1c be
       -0.20628048 -0.18057461 0.08912259 -0.15257986
000140 ca c4 41 3e c1 26 49 be 87 27 2e bd 65 28 55 3e
       0.18922725 -0.1964369 -0.042518165 0.2081619
000150 51 2e 7e 3c 37 9e 1e be 4b ee 81 3c 14 d8 16 3e
       0.015513972 -0.15490042 0.015860697 0.14730865
000160 f9 6c 24 be 06 d7 4a be e0 85 60 3d 22 32 62 3d
       -0.16057195 -0.19808587 0.054815173 0.05522359
000170 a8 0f 35 3e e5 c4 09 3e 4c f2 2f 3e fd 17 4b be
       0.17681754 0.13454016 0.17182273 -0.1983337
000180 f1 35 36 3d 2b 87 37 bd 17 a5 17 3e 6f 5b 10 be
       0.044485036 -0.04480664 0.1480907 -0.14097379
000190 6b e8 3a bd e4 35 3f 3e f2 ad 14 bc 18 06 58 be
       -0.045631807 0.18672901 -0.009074675 -0.21096075
0001a0 51 dc 34 be ba 65 ec bd 3e 69 09 bd 25 ae 26 bd
       -0.17662169 -0.1154284 -0.033547632 -0.04069342
0001b0 c7 0b 03 3e 5f fc 20 be 77 04 53 bc fe 88 f6 3b
       0.12797461 -0.15721272 -0.0128794825 0.007523655
0001c0 15 47 9f 3d a0 bd 23 be 40 ea 48 3e 70 21 34 3e
       0.0777723 -0.15990305 0.1962061 0.1759088
0001d0 cc d6 02 bd e2 fe 40 be 41 9b de bc 4b a2 82 3d
       -0.031943128 -0.1884723 -0.02717364 0.06378611
0001e0 6a 34 2d be 45 33 eb bd 25 f2 60 bd 9c 77 a9 bd
       -0.16914526 -0.11484388 -0.054918427 -0.08274767
0001f0 0c 15 75 3d 44 4b da 3d cd 32 13 3e 0d 84 17 bd
       0.059834525 0.10658887 0.14374848 -0.036991168
000200 49 da 47 be a5 53 15 be d8 f9 33 3e 90 a7 5a be
       -0.19516863 -0.14582689 0.17575777 -0.21352983
000210 4d 67 f1 bd d7 39 8e bd 0c 31 52 be 0a 69 2f be
       -0.11787281 -0.06944626 -0.20526522 -0.17129913
000220 38 0c 02 3e 1e bc 19 3e b2 5a 85 3c 62 4b 05 3e
       0.12699974 0.15013167 0.016278598 0.13017038
000230 5f c6 0f be 2d e6 e7 bd 49 c9 4e 3e cd 1a 0d bd
       -0.14040516 -0.113231994 0.20193972 -0.034449387
000240 9d b6 25 be 2f e2 80 3d cd 00 40 3e ed 97 f3 3d
       -0.16182943 0.06293141 0.18750305 0.11894212
000250 52 cc 5e 3e ec 37 57 bb 5a 2e 30 3d 45 5b 5d 3e
       0.2175763 -0.0032839729 0.043012954 0.21616848
000260 e6 65 0f 3e c9 54 19 3d 5e 79 4c 3d be 6a 9a 3d
       0.14003715 0.037434373 0.049920432 0.07539891
000270 16 32 e9 bd c4 9c 08 be 73 1b 13 be ba a7 bf bd
       -0.11386506 -0.13341051 -0.1436594 -0.09358163
000280 ac d0 2e bd 7d 85 b1 3c e4 f8 eb bd 80 0a fd 3d
       -0.042679474 0.021670097 -0.115220815 0.12355518
000290 7d 9c bb 3c ec 6c c6 3d b6 59 f7 bd d0 e2 ff bd
       0.022901768 0.09688744 -0.12077658 -0.12494433
0002a0 04 85 62 3b b4 28 b4 3d c3 04 c0 bd fb 3f 2c 3e
       0.0034564147 0.08796826 -0.09375908 0.16821282
0002b0 12 5a e2 bd e6 fc 3c 3d 70 ce 3e 3e 01 b7 2b 3e
       -0.11052336 0.04613962 0.18633437 0.16769029
0002c0 b4 cf ba bc 11 9c 12 3a d8 f0 f6 bd 87 ac b4 bc
       -0.022804119 0.0005592714 -0.12057656 -0.022054924
0002d0 21 d0 2f 3e 7b 32 14 be 48 ec 17 be 46 cc a6 bd
       0.17169239 -0.14472382 -0.14836228 -0.08144431
0002e0 96 25 57 be 0d 4f 6a bd ba 01 87 bd 1f e5 14 bc
       -0.21010432 -0.057204295 -0.06592126 -0.00908783
0002f0 d4 80 2b be bc 23 91 3c c0 4c 18 3e d5 c9 22 3e
       -0.16748363 0.017717235 0.14873028 0.15897305
000300 9e 50 49 3e 4b a1 47 bb bf f8 99 3d 28 3f 16 be
       0.1965966 -0.0030461128 0.07518148 -0.1467253
000310 25 cc 11 3c 1b 36 1a 3e 12 21 f3 3d 96 9a ca bd
       0.0088987695 0.15059702 0.11871542 -0.09892766
000320 f9 1b 44 be a3 d9 24 ba 06 c8 3e 3e 4b 4c 09 be
       -0.19151296 -0.0006288534 0.1863099 -0.1340801
000330 9e f4 39 3e ba 06 16 3e 0c e0 09 3a a9 9a 8e bd
       0.1815972 0.14651003 0.0005259521 -0.06963093
000340 ac 8f c3 3c c3 fd 9c bd ca e2 b2 bd 67 0e 92 3d
       0.023872219 -0.07665589 -0.08734663 0.07131653
000350 4a e7 3e be a1 b7 1b 3e a5 27 33 3d a3 45 0c 3e
       -0.18642917 0.15206768 0.04373898 0.1369844
000360 06 57 47 be 22 10 f0 bb e7 12 7e 3d e1 92 36 be
       -0.1946679 -0.007326142 0.062029745 -0.17829467
000370 36 df cc 3c 25 1b 34 3e bc 38 6b 3b 6f 6d 48 3e
       0.025008779 0.1758848 0.003589197 0.19572996
000380 c8 73 ff 3c c0 c4 d7 bd 38 1c 80 3d 43 f2 3c 3e
       0.031183138 -0.10535574 0.06255382 0.1845179
000390 de e2 f0 bd e8 0e 91 bd 87 de 56 be 0b 03 3d be
       -0.117620215 -0.07082921 -0.20983325 -0.18458192
0003a0 33 47 d4 bc 34 83 44 be 2c 86 4d be 14 30 4a 3e
       -0.025912857 -0.19190675 -0.20070714 0.19744903
0003b0 8c a5 aa 3d 56 46 27 3d 71 2c cb bd e9 53 c4 3d
       0.08332357 0.040838562 -0.09920586 0.09586317
0003c0 00 19 b5 bc fd 47 86 bd 37 35 39 3e db 65 1a be
       -0.022106647 -0.065566994 0.18086706 -0.15077917
0003d0 8c 8a f6 3d 3f 51 13 3d 39 ad d0 3d a1 1b b8 bc
       0.120381445 0.035966154 0.101892896 -0.022474112
0003e0 43 60 bf 3d 2b 01 1f 3e 40 12 eb bc 5a b9 dc bd
       0.09344532 0.1552779 -0.028695226 -0.107775405
0003f0 e9 f5 41 3e ba fe 6c bc ee 1d c7 3d 97 22 3b 3e
       0.18941464 -0.014465028 0.097225055 0.18274914

cell_list.0.node_list.0.conv3x3.4.weight f4 [20]
000000 bc 1f 3a 3f 5c 68 77 3f ea 5b bc 3e f3 cb 0e 3f
       0.7270467 0.96643615 0.36788875 0.5577995
000010 39 65 42 3f 22 40 08 3f 46 d5 61 3f 25 56 e6 3e
       0.75935704 0.5322286 0.88216054 0.44987598
000020 a8 63 26 3f ad 16 01 3e 60 8d 0c 3e 3f 30 31 3f
       0.64995813 0.12606306 0.13725805 0.6921424
000030 28 fc e6 3e 19 21 3b 3f 36 e2 40 3f 54 3c 43 3f
       0.45114255 0.7309738 0.7534517 0.7626393
000040 3a 51 39 3f eb 0f 50 3f 1d 86 7f 3f b8 53 7c 3f
       0.72389567 0.8127429 0.99814016 0.98565245

cell_list.0.node_list.0.conv3x3.4.bias f4 [20]
000000 98 79 df ba 1c 7b 88 ba 07 d0 ad 3a 1f 9f 42 bb
       -0.0017049788 -0.0010412666 0.001326085 -0.0029696894
000010 ca 69 c2 38 ab 9d 9c 3a 63 8f 1c 39 ff fa 53 38
       9.2703456e-05 0.0011948844 0.00014930735 5.054008e-05
000020 df 77 bb b9 02 4d e2 ba c0 d8 0f 39 e0 fb e9 37
       -0.0003575673 -0.0017265382 0.00013718288 2.7893053e-05
000030 da f3 95 3a 28 c8 9a 3a 2f fe c9 39 1b b4 c7 39
       0.0011440471 0.0011808919 0.0003852709 0.00038090427
000040 b2 48 11 b9 d7 ed 5a 39 00 27 1c 3a 80 22 87 b8
       -0.00013855359 0.00020878702 0.0005956739 -6.443728e-05

cell_list.0.node_list.0.conv3x3.4.running_mean f4 [20]
000000 a0 38 8d 3c f8 fc d6 3c 0f c4 96 3c 74 fc a8 3c
       0.017238915 0.026243672 0.018404035 0.020628192
000010 a5 58 ba 3c 0e 60 73 3c 2c 20 9b 3c a5 c0 9b 3c
       0.022747347 0.014854444 0.01893624 0.019012759
000020 11 17 90 3c 3e 51 7e 3c 9c a6 64 3c 54 c6 ca 3c
       0.017589124 0.015522299 0.013955738 0.024752773
000030 76 67 4e 3c 83 48 80 3c 26 5e af 3c 9a a9 e3 3c
       0.012597909 0.015659576 0.021407198 0.027790833
000040 c7 50 e2 3c f9 0b 7d 3c 07 08 93 3c 49 9e 8b 3c
       0.027626408 0.015444749 0.017948164 0.01704325

cell_list.0.node_list.0.conv3x3.4.running_var f4 [20]
000000 18 2d 7d 3c 53 bd 8a 3c 53 ff 7a 3c cc 17 7e 3c
       0.015452646 0.01693598 0.015319663 0.015508603
000010 e9 16 80 3c 02 cb 7b 3c 29 f8 7f 3c 06 75 81 3c
       0.015635924 0.015368225 0.015623131 0.015802871
000020 31 65 7f 3c 99 49 7b 3c 76 f7 7a 3c dc 5a 81 3c
       0.015588091 0.015337371 0.015317788 0.015790395
000030 fa 22 79 3c c9 63 7c 3c be b0 80 3c ba 51 81 3c
       0.015206093 0.01540465 0.015709277 0.01578604
000040 1c 89 89 3c 32 74 79 3c a2 5b 7c 3c 43 5e 79 3c
       0.016789012 0.015225457 0.015402706 0.015220228

cell_list.0.node_list.0.conv3x3.5.0.weight f4 [20, 1, 3, 3]
000000 6b ae 44 3d 1f ae 03 bb 01 6e 16 bd 5e 1f 81 3d
       0.0480179 -0.0020092798 -0.036726 0.06304811
000010 92 0b 79 3d 0d d1 3a 3d 87 d2 9c bc bb 2b b0 3b
       0.06080205 0.045609523 -0.019143356 0.005376307
000020 33 b8 74 3d 0c 64 1a 3c 7a a6 24 bb e2 f1 03 3d
       0.05974598 0.009423267 -0.0025123642 0.0322131
000030 7b 41 90 bd ea 40 8f bd de eb ca bd ef c5 4b bd
       -0.070437394 -0.06994803 -0.09908269 -0.04974931
000040 4d 52 72 bd 25 77 b3 3c 85 d4 73 bd 32 25 85 bd
       -0.05916052 0.021907398 -0.059528846 -0.06501235
000050 e9 76 ab 3c 0e fa 5a 3c 92 9f 00 bc 5b a3 49 bd
       0.020930724 0.013365282 -0.0078505445 -0.049228054
000060 0a 53 c3 3c f9 d5 3c 3b 3a 22 3b 3c 69 e5 9d 3d
       0.023843307 0.002881406 0.0114217345 0.07709772
000070 52 83 63 3c e9 f4 8b 3d 3e de 18 3d 3d cb 31 3d
       0.01388629 0.06833822 0.03732132 0.043406714
000080 6b 72 13 bb 9d 0a 84 3c f0 06 47 3d 0f 7f 5d bd
       -0.0022498618 0.016118342 0.0485906 -0.05407625
000090 55 32 7c bb 4b f3 44 bc c1 c3 ea bb 97 4e 04 bd
       -0.0038482149 -0.012020896 -0.007164449 -0.03230151
0000a0 a8 fe a2 bc 6e 75 1a 3d ca b1 55 bd 2d 85 32 3c
       -0.01989682 0.037709646 -0.052171506 0.010896009
0000b0 49 b6 68 3b 34 6f 0b 3d 39 32 1b bb 36 e1 5a 3d
       0.003550904 0.0340416 -0.0023681058 0.053437434
0000c0 12 7c 1f 3c 21 e8 07 bc 61 b9 16 bd 4e 30 80 bd
       0.0097341705 -0.00829509 -0.036797885 -0.062592134
0000d0 fa 25 1e bd 70 6c 94 3d 6b 33 9e bc 54 55 41 3d
       -0.038610436 0.07247245 -0.019311627 0.047200516
0000e0 a0 59 f3 bc cc 1c 60 bc 7a da 56 3d c8 d2 50 bd
       -0.029705822 -0.013678741 0.05245445 -0.050982267
0000f0 65 a7 2d bc a8 49 30 3b 87 6d b0 3b 75 7f 8e 3c
       -0.010598992 0.0026899371 0.0053841504 0.01739476
000100 21 63 18 bd 72 75 e3 bc 65 c9 f3 3a 11 72 05 3d
       -0.03720391 -0.027765963 0.0018599449 0.032579485
000110 a0 dc 39 bb 78 6e e5 3c 1e 3b 72 bc 88 68 5c 3d
       -0.0028360263 0.028006777 -0.014784602 0.053810626
000120 15 44 f7 3c 12 5b 4a 3d 62 71 72 3d 41 37 32 3c
       0.030183831 0.049403258 0.05919016 0.010877431
000130 f3 61 a2 3c 28 42 36 3d 88 f5 1c 3d 9e ee 3b 3d
       0.019822096 0.044496685 0.038320094 0.04588186
000140 a1 f1 62 3d e9 36 e5 3c c1 16 43 bd 4b 03 9a bb
       0.055406217 0.027980285 -0.04762912 -0.0047000996
000150 3f 30 80 bd 63 7e 43 3d 13 66 b4 3c 60 89 89 bd
       -0.06259202 0.047727954 0.022021329 -0.06715655
000160 60 dc be bc 37 75 7f bd 4d 73 1d 3c 63 08 de 3a
       -0.023298442 -0.062367644 0.009610009 0.0016939755
000170 24 5b 09 bd a7 a9 d4 3c 39 86 0f bd 00 84 13 3d
       -0.033534184 0.025959803 -0.035040114 0.036014557
000180 62 12 d2 bc 0f ac 72 bd e7 16 80 3d 34 08 27 3c
       -0.025643531 -0.05924612 0.06254368 0.010194827
000190 7a d6 46 3d 81 87 58 3b 6e a0 53 3d 73 f6 8f 3b
       0.048544385 0.003303975 0.05166667 0.0043933927
0001a0 bc 96 31 bd 70 73 91 bd 1d df d2 bc 56 7c 55 3d
       -0.043356642 -0.07102096 -0.025741154 0.05212053
0001b0 c1 e0 0c bd 24 41 fa bc 02 c1 02 bd 3b c7 e8 bc
       -0.03439403 -0.03054864 -0.031922348 -0.028415313
0001c0 52 86 86 bd dd 3c 88 bd 84 7b f1 bc 0d d5 05 3d
       -0.06568588 -0.06652234 -0.029477842 0.032673884
0001d0 71 8d 50 3c 57 d3 68 bd d8 73 72 3c 15 1d 68 bd
       0.012729035 -0.056842174 0.014798127 -0.05666836
0001e0 61 9d 3c bd f1 c0 68 3d da 0e 60 bb a4 13 ac 3c
       -0.046048526 0.05682463 -0.003418854 0.02100546
0001f0 cd c9 b5 bb 50 0b e1 bb b1 f3 67 bc 7b 64 89 bc
       -0.005547738 -0.0068678036 -0.014157222 -0.016771546
000200 70 ba 36 3c fa 42 47 3d d7 a5 0b bd 4e f1 9a 3d
       0.011152849 0.04864786 -0.034093704 0.075655565
000210 8e 52 76 bd d2 e6 9d bd e8 97 ba bc f9 91 b0 3d
       -0.060137324 -0.07710041 -0.022777513 0.08621592
000220 9e 7b 89 bc 76 b7 82 3d 03 97 70 bd bf db 35 3d
       -0.016782578 0.06382649 -0.058737766 0.04439902
000230 97 1c 96 3d 7f 52 96 3d 5f 0d a8 bc e8 4e 8b bd
       0.07329672 0.07339954 -0.020514188 -0.068021595
000240 5c d0 80 3d 5f 55 25 bd a2 27 4d 3c f5 b2 8f 3d
       0.062897414 -0.04036462 0.012521656 0.07016555
000250 89 1d 3e 3c f8 e5 f0 bc c5 8c 33 bd c2 d1 0e 3c
       0.011603721 -0.029406533 -0.04383542 0.008717002
000260 67 a1 55 bc cb cc dc 3b 26 61 ce bc 6a 08 84 3d
       -0.01303897 0.0067382804 -0.025192808 0.06446917
000270 e1 fb f9 bc 7d 1d 1a bd a9 af 88 3d 8c f1 82 3d
       -0.030515613 -0.03762578 0.066741295 0.06393728
000280 5c a3 a7 bc c4 ae fc 3c 7d 83 74 bd b1 94 9a bd
       -0.020463638 0.030845053 -0.05969571 -0.07547892
000290 ce d1 d3 3c 0d 0f 97 3d 4b 57 6a 3d c5 cf 8c ba
       0.025856879 0.073759176 0.057212155 -0.0010743072
0002a0 d0 af dc 3c 51 f7 a2 bc 7f c4 60 bd cf 11 09 bd
       0.026939303 -0.01989332 -0.054874893 -0.03346425
0002b0 ab 10 99 3d f2 0c b8 bc de 61 b0 bc 98 f3 38 3c
       0.07473882 -0.02246711 -0.021531042 0.011288546
0002c0 01 29 f2 bb 86 2f 9c bb 0d 0b af 3d ef c7 c6 3d
       -0.007390142 -0.0047664074 0.0854703 0.09706103

cell_list.0.node_list.0.conv3x3.5.1.weight f4 [20, 20, 1, 1]
000000 ec e1 b6 3d ee b6 a2 3b 90 f7 11 3e 3a 88 33 be
       0.0892981 0.0049656546 0.14254594 -0.17532435
000010 23 da 12 be 73 68 03 3d 6b 9f 67 bd 28 ad c7 3d
       -0.14341025 0.032082032 -0.056548517 0.09749824
000020 5b 8f 1a bd a1 36 10 3e e1 a9 52 be 1c 5a be bd
       -0.03773437 0.1408334 -0.20572616 -0.09294531
000030 60 a5 84 bd 78 b3 11 bd 4f 3c 33 3d 2c 0d eb 3d
       -0.06476855 -0.035571545 0.043758687 0.11477122
000040 5c a4 3d 3e 12 b6 23 3e 83 eb 24 bb 22 df cb bd
       0.1851973 0.15987423 -0.002516479 -0.099546686
000050 c0 88 2a 3e 21 10 42 3e e7 92 06 3e 78 06 d3 bd
       0.16653728 0.18951465 0.13141976 -0.10303968
000060 a1 b6 34 bd 3a 95 95 3d fd af 2b be 41 b5 20 3e
       -0.04411948 0.07303853 -0.16766353 0.15694143
000070 59 b4 28 be 9c 82 21 be e9 4e 69 3d 50 eb a7 bd
       -0.16475047 -0.1577248 0.05696002 -0.08199179
000080 9e af e7 bd c7 ba 5c 3e f4 77 47 be 21 09 11 be
       -0.11312793 0.21555625 -0.19479352 -0.14163639
000090 8d 17 84 3d 0a a1 11 bd d4 0b 0e 3e 40 97 47 3e
       0.064498045 -0.03555397 0.138717 0.19491291
0000a0 f2 52 0d be 93 28 6c bd c6 f6 12 3d 42 fa 64 be
       -0.13801172 -0.057655882 0.035879873 -0.22361091
0000b0 f8 22 1c bc 02 20 61 be 9f 40 03 be d3 cf f3 bd
       -0.009529822 -0.21984866 -0.1281762 -0.11904874
0000c0 b2 57 55 3e b8 b9 26 3e 5d f2 43 3d 97 be 35 be
       0.20834234 0.16281784 0.047838558 -0.17748486
0000d0 98 87 4e be aa 3c e7 bd 36 13 13 be 72 f4 20 be
       -0.20168912 -0.112908676 -0.14362797 -0.15718248
0000e0 61 91 c9 3c 8a 99 30 be 66 86 93 bb bd ac fe 3b
       0.024605455 -0.1724607 -0.0045021055 0.007772057
0000f0 80 63 c6 3d 10 b0 52 be 05 93 63 3e 3d 38 66 3e
       0.09686947 -0.20574975 0.22224052 0.2248239
000100 03 df 0f be 4b 25 5b 3e ec 12 82 3c b2 cb 0e bd
       -0.14049916 0.21400945 0.015878163 -0.034862228
000110 58 c2 5f 3e 48 c4 95 bd ef 11 9f 3d 27 3f 01 be
       0.2185148 -0.07312828 0.077670924 -0.12621747
000120 fa ed c2 bb c0 12 5e 3e e8 62 d0 3c 14 c9 f1 bd
       -0.005948779 0.2168684 0.025437787 -0.11805931
000130 91 1a 26 3e ac 9a 30 be e3 43 76 3d c4 6d a9 3d
       0.16221072 -0.17246503 0.060123336 0.08272889
000140 92 ba 2f be 4d bc 44 be 37 ee be 3d 46 55 f4 bd
       -0.17161015 -0.19212456 0.093227796 -0.11930327
000150 b3 6a 97 3d 82 3d 93 bc c4 70 a0 bc 8e 45 08 3e
       0.07393398 -0.017973665 -0.01958502 0.13307783
000160 87 aa b8 bd 94 62 54 be 68 f6 01 3d a8 35 10 bd
       -0.090169005 -0.2074073 0.031729132 -0.03520742
000170 72 14 bf 3d f0 d5 fb bc 10 3b 6c bd 0c 29 1a be
       0.093300715 -0.030741662 -0.057673514 -0.1505472
000180 6f 93 45 be 23 3c 0d 3e 6a f7 93 bd d1 ae 92 3c
       -0.19294523 0.13792472 -0.07224925 0.017905625
000190 7b 01 8c bd 7e ee 5e be c7 30 a7 bd b2 f1 ad bd
       -0.0683622 -0.21770665 -0.081636004 -0.08493365
0001a0 47 08 05 be 10 93 55 be 4a 2a 3d be b2 18 3f 3e
       -0.12991439 -0.20856881 -0.18473163 0.18661764
0001b0 5c ad eb bd d2 99 c4 3d 20 94 d0 bd 04 91 1b be
       -0.11507675 0.095996514 -0.101845026 -0.15192038
0001c0 d5 39 37 3d 3f fd 5d be a1 ff f1 3c b6 07 97 3b
       0.044732887 -0.21678637 0.029540839 0.0046090735
0001d0 45 1a 4e 3e 17 14 59 be 18 d5 4a be 95 08 cb bd
       0.20127209 -0.2119907 -0.19807851 -0.09913746
0001e0 d1 fc 0b 3e 8d 4d 1c 3e 41 32 39 bd d0 78 f6 bd
       0.1367066 0.15263958 -0.04521394 -0.12034762
0001f0 cf 7c 63 bc 3b 5e 27 be 30 90 9b bd 22 77 e8 3d
       -0.013884737 -0.1634454 -0.07595861 0.11350848
000200 b8 54 a4 bd c2 c3 1d bd f2 d8 e5 3d ec 71 3a 3e
       -0.08023971 -0.038516767 0.1122302 0.1820752
000210 59 15 92 bd 22 79 3d 3e 8c 01 7d 3d f1 ea 53 be
       -0.07132978 0.1850324 0.061769053 -0.20695092
000220 41 33 dd 3d 0d 74 b1 bc 84 f6 ed 3d 2c 70 54 3e
       0.108007915 -0.021661783 0.11619285 0.20745915
000230 55 5f ab bd a1 33 2c be ba ee 81 3d 6f 82 08 bb
       -0.083677925 -0.1681657 0.063443616 -0.0020829698
000240 2e 86 2f 3e 06 f8 a5 bd c5 90 fb bd 86 db 62 3d
       0.17141029 -0.08103947 -0.12283472 0.055385135
000250 9f 6c db bc 7e 33 04 3e 08 83 0e be 36 f7 b1 3c
       -0.026785193 0.12910268 -0.13917172 0.021724325
000260 70 dc e6 3b 69 f0 b5 3d 8f 4d 3f 3e 8a d2 e0 bd
       0.007045321 0.08883745 0.1868193 -0.10977657
000270 a4 92 60 3d 6a c1 ad bd c2 ff 17 be a1 88 be bd
       0.054827347 -0.084841564 -0.14843658 -0.09303404
000280 ce 04 17 be 63 51 6a 3c dc ac 4c be 63 b8 1e bc
       -0.14747927 0.014301631 -0.19987816 -0.009687516
000290 88 49 2c be 99 ed 0b 3e bc 56 1d 3e d3 c4 10 3e
       -0.16824925 0.13664855 0.15365118 0.14137582
0002a0 5b e7 5b bd 14 d4 43 3e 60 2b e6 bd 5a e1 c4 bd
       -0.053687435 0.1912387 -0.11238742 -0.09613295
0002b0 be ad 04 3e bb df 18 be 32 85 3f 3e 4b c6 43 bd
       0.12956902 -0.14929096 0.18703154 -0.04779653
0002c0 37 af 04 3e 26 52 53 3e ff 1c 8f bd cf 18 e2 3d
       0.12957464 0.20636806 -0.069879524 0.11039888
0002d0 59 13 43 3e 9b 63 09 3e 3d 8e c1 bd 24 0c 6b bd
       0.1905035 0.13416903 -0.09450958 -0.057384625
0002e0 6b d0 0e 3e bd b2 ed 3d 96 1e 41 3e 4d cf 53 3c
       0.13946693 0.11606357 0.18859324 0.012927842
0002f0 2b ba 6f bb 60 50 1f 3e 0a 66 02 3e 3c b3 c8 bd
       -0.003657947 0.15558004 0.12734237 -0.09799811
000300 0f b3 88 bd 86 b0 b7 bd a2 02 35 3e 8a dc b5 3d
       -0.06674778 -0.08969216 0.17676786 0.08879955
000310 5c c1 f1 3d dd 14 4c 3d a2 c6 21 3d 67 c5 3f be
       0.118044585 0.049824584 0.03949607 -0.18727647
000320 4a d8 76 3c 93 2b 2c be 58 62 08 bd 4f 48 72 3d
       0.015066216 -0.16813497 -0.033296913 0.05915099
000330 38 31 f9 3d 25 e3 36 be 14 39 1e 3d 9c 8e 07 3e
       0.12167591 -0.17860086 0.038628653 0.13237995
000340 32 30 f6 3d 87 e0 29 3e 53 06 60 3e 1c 5c 22 be
       0.12020911 0.16589557 0.21877412 -0.1585545
000350 dc a6 38 3d 59 7b ea bb a2 0a 4d 3e 62 a5 13 3e
       0.045081005 -0.0071558175 0.20023587 0.14418557
000360 fe 5d cd 3d f0 77 70 3d 20 84 4e be 8f 63 14 3e
       0.10027693 0.05870813 -0.20167589 0.14491104
000370 4d 35 4a be bb b7 29 3e 88 97 90 3c 7f 57 39 be
       -0.19746895 0.16573994 0.01765038 -0.18099783
000380 a7 ad fb bd 4a 0d 5c 3e e7 40 fb 3c e9 fd 95 bd
       -0.12288981 0.21489444 0.030670596 -0.0732382
000390 85 8c c1 3d be 49 91 bc 97 91 b0 3c 1d f5 02 bd
       0.0945063 -0.017735358 0.021553798 -0.03197204
0003a0 ab dc 4b 3e 08 18 36 3d a2 5b b2 3d 17 88 b1 3d
       0.19908397 0.04445651 0.08708884 0.08668535
0003b0 41 00 ae 3d 3d d3 ca bc 3f a3 0a be 50 01 5c 3e
       0.08496142 -0.02475893 -0.13538836 0.21484876
0003c0 85 9d e8 bc fe df 54 be a4 97 b8 bd 56 0a d1 3d
       -0.028395424 -0.20788571 -0.09013298 0.102070495
0003d0 d9 04 88 bd db 49 62 be 80 89 99 3d 94 86 3c 3e
       -0.066415496 -0.22098486 0.07496929 0.18410712
0003e0 e1 ad a1 3c a7 ca 53 bd 8f 66 d5 bd 8b eb 59 be
       0.019736232 -0.051706936 -0.10419952 -0.21281259
0003f0 55 3c 29 3e 31 f7 21 3d bf 09 0f 3e 6e ed 10 be
       0.16526921 0.03954238 0.13968562 -0.14153072

cell_list.0.node_list.0.conv5x5.1.weight f4 [20]
000000 37 06 b9 3e 32 93 d3 3e 20 69 15 3e 06 ca 51 3f
       0.36137554 0.4132324 0.14590883 0.8194889
000010 b6 39 87 3e 1b aa 09 3f b1 02 17 3f b7 d0 99 3e
       0.26411217 0.53775185 0.5898848 0.3004205
000020 ed f4 30 3e 0d 30 30 3f 15 0f 06 3d d3 d3 41 3f
       0.17280932 0.6882332 0.032729227 0.75713843
000030 53 f3 21 3f c3 d1 42 3f 28 59 d9 3e de 51 ad 3d
       0.6326191 0.7610132 0.42450833 0.084628806
000040 3f 21 1d 3e b6 c1 e6 3c ff 9c f0 3e 7f 22 35 3f
       0.15344714 0.02816854 0.4699478 0.7075576

cell_list.0.node_list.0.conv5x5.1.bias f4 [20]
000000 aa 37 d5 b9 8b 82 86 3a 72 b2 9b b8 ff 97 a5 ba
       -0.00040668 0.0010262294 -7.424214e-05 -0.0012633799
000010 c6 65 a8 36 03 8f a0 39 b0 63 c0 38 5a 6d 33 ba
       5.018638e-06 0.0003062413 9.173842e-05 -0.0006844603
000020 14 8c ad b9 58 57 84 3a c3 20 c7 38 93 02 09 bb
       -0.00033101498 0.0010096831 9.495162e-05 -0.0020906075
000030 b0 e9 93 38 1f a1 ae b9 b0 fb 8c 3a e4 c0 cb ba
       7.053034e-05 -0.0003330791 0.0010756161 -0.0015545157
000040 4b 56 ae 39 d2 c9 06 3a 0d aa c8 38 a2 ac da 3a
       0.0003325216 0.0005141768 9.5684176e-05 0.0016683529

cell_list.0.node_list.0.conv5x5.1.running_mean f4 [20]
000000 0a fc 90 3d e5 f0 b6 3d 2e 8c cd 3d a3 2b 03 3e
       0.07079323 0.08932666 0.10036503 0.12809615
000010 86 b7 bd 3d c7 0f e0 3d 57 a4 b0 3d 5f ef 6d 3d
       0.0926352 0.10940509 0.08625095 0.05808961
000020 0c 22 00 3e d3 eb 09 3e dc 56 e9 3d b8 6f 20 3e
       0.12512988 0.13468866 0.1139352 0.15667617
000030 9c 2d 25 3e 79 36 d1 3d 7c b3 0b 3e 25 16 d8 3d
       0.1613068 0.10215468 0.13642687 0.10551099
000040 3c d7 0d 3e 4d b8 b5 3d cd 7c 09 3e 94 2d a4 3d
       0.13851637 0.08873043 0.13426514 0.08016506

cell_list.0.node_list.0.conv5x5.1.running_var f4 [20]
000000 3e e9 06 3d 3e b8 08 3d 34 1d 5d 3d 58 e9 c7 3d
       0.03293728 0.033378832 0.05398293 0.09761304
000010 4d 2d 55 3d bb 14 55 3d a0 5a 41 3d f9 46 01 3d
       0.052045155 0.052021723 0.047205567 0.031561825
000020 97 3e 98 3d d8 29 f5 3d 9b 8a b4 3d 47 7e d8 3d
       0.07433813 0.11970872 0.088154994 0.105709605
000030 f5 a8 15 3e ee 82 91 3d 13 d2 d8 3d 94 82 7d 3d
       0.14615233 0.07105051 0.105869435 0.061892107
000040 12 b6 9d 3d 3e 67 3a 3d d4 5a a6 3d 40 93 74 3d
       0.07700743 0.045508616 0.08122793 0.05971074
